DL-HandsOn/LSTM/model.ckpt (torch_old, 858671 bytes, 10 tensors)

lstm.weight_ih_l0 f4 [512, 28]
0.06250389 -0.03536588 -0.10596255 0.60147476 0.64786816 0.11864143 0.026025414 0.041244406
0.17574419 0.05721954 -0.08491564 -0.164299 -0.1177385 -0.01198997 -0.14190748 -0.45361882
-0.47644165 -0.37524164 -0.21524991 -0.33557594 -0.27988115 -0.46977925 -0.63771015 -0.41000068
-0.357072 -0.17365998 0.46102095 0.3687826 -0.1444422 0.022574736 0.09096509 -0.13397998
-0.260448 -0.269915 -0.23489083 -0.273812 -0.31229493 -0.30897447 -0.048504718 -0.12554687
-0.14802678 -0.12873723 -0.054514635 -0.048244733 -0.11336631 -0.115501426 -0.041197997 -0.17468765
-0.33710873 -0.26256752 0.03366059 -0.08277429 -0.17739603 -0.21179911 0.19781704 0.05495461
-0.13437042 0.26677176 0.55418134 0.47364566 -0.19186568 -0.42375848 -0.27478382 -0.026347809
-0.2070871 -0.18309303 -0.16166268 -0.26682025 -0.27515104 -0.48442003 -0.53848135 -0.46800366
-0.32853055 -0.34035155 -0.35313752 -0.27539685 -0.09726607 0.114944786 0.1389305 -0.04368956
-0.12777296 -0.22018154 -0.3821307 -0.3307712 0.04092795 0.016546093 0.35967425 0.3443074
0.031785175 -0.19592007 -0.13256782 -0.02657648 0.015039286 -0.19444326 -0.2660666 -0.33987167
-0.37742698 -0.42732415 -0.2921606 -0.0131831225 -0.06958938 0.019248264 0.034626797 0.120315365
-0.024200868 -0.17989512 -0.055858184 -0.105166666 -0.09799853 -0.3525294 -0.13288008 -0.21349117
0.12125697 -0.0647509 -0.49754536 -0.51385206 0.009588438 -0.10206831 -0.06644486 -0.14797805
-0.11190265 -0.10708381 -0.15343712 0.02895366 0.02628997 -0.09397153 -0.073435664 -0.045524143
0.12295909 0.09155695 0.015823185 0.24121478 0.29778674 0.11504605 0.17499542 0.1329347
-0.3103514 -0.7625706 -0.34508315 0.21585871 -0.17641579 -0.2375817 -0.55718476 -0.3455461
-0.39451572 -0.49054602 -0.3741026 -0.28183728 -0.29486778 -0.26294914 -0.067384884 0.24852961
0.5811617 0.46246633 0.07583194 -0.06150952 0.13022193 0.14270826 -0.06591963 -0.4186634
-0.8199728 -0.8024859 -0.8004806 -0.64105463 -0.7012976 -0.55376375 -0.41863126 -0.058227234
-0.013371844 -0.17795488 -0.25320956 -0.19284856 -0.31502488 -0.40743196 -0.35439447 -0.42255983
-0.22724018 -0.031722393 -0.072153196 -0.17819956 -0.16807286 -0.1942474 -0.15451552 -0.23726457
-0.25848097 -0.27291068 -0.1714059 -0.117352605 0.036687233 0.11291263 0.17249796 0.2299907
0.14869204 -0.15703928 -0.11734811 0.26925594 0.19971046 -0.12473666 0.2405033 0.08184014
-0.08669271 -0.2404307 -0.2228355 -0.30848888 -0.4230523 -0.52540815 -0.2908717 -0.08625509
-0.25821874 -0.1686613 0.18072939 0.22882627 0.13698062 0.057784494 -0.2487714 -0.25635254
-0.49205267 -0.41386142 -0.25846824 -0.11403076 -0.09065597 0.14325854 0.4024772 0.3335101
0.21015078 -0.20070413 0.051382706 0.6080879 0.09182742 -0.0936327 -0.41460177 -0.33463475
-0.36894745 -0.25051135 -0.11347956 -0.046053503 -0.099148616 -0.2179808 -0.31746826 -0.36645198
-0.48595652 -0.5267566 -0.57633954 -0.63372654 -0.49362996 -0.72682875 -0.72905153 -0.7555661
-0.64020073 -0.14558972 0.19282338 0.00813739 -0.26603767 0.20507455 -0.21286635 -0.4414063
00000000: 0a02 803d d0db 10bd e502 d9bd 40fa 193f
00000010: b0da 253f 47fa f23d 4033 d53c e5ef 283d
00000020: 49f6 333e 095f 6a3d 40e8 adbd ff3d 28be
00000030: e220 f1bd 9471 44bc 3250 11be ba40 e8be
00000040: 29f0 f3be ac1f c0be 796a 5cbe 9cd0 abbe
00000050: 954c 8fbe e886 f0be f940 23bf 9ceb d1be
00000060: 24d2 b6be ecd3 31be f00a ec3e 13d1 bc3e
00000070: a8e8 13be a7ee b83c e84b ba3d 0c32 09be
00000080: 7159 85be 4d32 8abe 3987 70be 1631 8cbe
00000090: 1fe5 9fbe e731 9ebe e2ac 46bd 5c8f 00be
000000a0: 5594 17be b1d3 03be bd4a 5fbd 459c 45bd
000000b0: 992c e8bd 038c ecbd 3bbf 28bd 52e1 32be
000000c0: 8499 acbe 406f 86be b0df 093d 9185 a9bd
000000d0: 4ea7 35be dee1 58be 8d90 4a3e 1618 613d
000000e0: 6698 09be 4f96 883e d4de 0d3f af81 f23e
000000f0: 7078 44be dff6 d8be 77b0 8cbe 5cd7 d7bc
00000100: a40e 54be bd7c 3bbe e78a 25be aa9c 88be
00000110: 99e0 8cbe e705 f8be ead9 09bf 2d9e efbe
00000120: 2835 a8be 8f42 aebe 71ce b4be d100 8dbe
00000130: 6f33 c7bd 2c68 eb3d cc43 0e3e d3f3 32bd
00000140: ead6 02be 4577 61be a3a6 c3be d85a a9be
00000150: 11a4 273d ac8b 873c 3927 b83e 0f49 b03e
00000160: 2c31 023d 459f 48be dcbf 07be ebb6 d9bc
00000170: 5667 763c 221c 47be e239 88be a903 aebe
00000180: 1c3e c1be 3bca dabe 1396 95be 06fe 57bc
00000190: e084 8ebd 89ae 9d3c d4d4 0d3d e767 f63d
000001a0: e640 c6bc 6d36 38be 8dcb 64bd 9f61 d7bd
000001b0: 74b3 c8bd bc7e b4be b711 08be 6e9d 5abe
000001c0: 9355 f83d 1f9c 84bd 44be febe cf8b 03bf
000001d0: d318 1d3c 3109 d1bd 3e14 88bd 8f87 17be
000001e0: 372d e5bd c24e dbbd 9f1e 1dbe 3a30 ed3c
000001f0: 105e d73c 2574 c0bd 7065 96bd 8677 3abd
00000200: fad1 fb3d 3682 bb3d a09f 813c 0201 773e
00000210: 8177 983e 439d eb3d 0032 333e 0920 083e
00000220: 61e6 9ebe d437 43bf bdae b0be 110a 5d3e
00000230: 57a6 34be 9e48 73be a9a3 0ebf 6beb b0be
00000240: f7fd c9be d928 fbbe 608a bfbe fa4c 90be
00000250: e9f8 96be 45a1 86be 1601 8abd 8c7e 7e3e
00000260: 03c7 143f 63c8 ec3e c74d 9b3d 68f1 7bbd
00000270: e658 053e 1d22 123e df00 87bd 0d5b d6be
00000280: bde9 51bf b76f 4dbf 4cec 4cbf 281c 24bf
00000290: 3d88 33bf 76c3 0dbf d656 d6be ae7f 6ebd
000002a0: 9415 5bbc ce39 36be afa4 81be 187a 45be
000002b0: f14a a1be ec9a d0be 3173 b5be c359 d8be
000002c0: a6b1 68be 57ef 01bd 0ec5 93bd f279 36be
000002d0: 4b1b 2cbe cae8 46be 5139 1ebe 7cf5 72be
000002e0: 9e57 84be f3ba 8bbe 0785 2fbe 9056 f0bd
000002f0: 5a45 163d bd3e e73d 4ea3 303e af82 6b3e
00000300: ba42 183e e8ce 20be 3554 f0bd eadb 893e
00000310: e680 4c3e ef75 ffbd 7f46 763e ce9b a73d
00000320: f38b b1bd 7733 76be fd2e 64be 41f2 9dbe
00000330: 509a d8be 2681 06bf 23ed 94be 82a6 b0bd
00000340: 3f35 84be 8cb5 2cbe 2011 393e 6f51 6a3e
00000350: a644 0c3e 6faf 6c3d eebd 7ebe a440 83be
00000360: 54ee fbbe a5e5 d3be f355 84be f688 e9bd
00000370: d6a9 b9bd 5eb2 123e 7e11 ce3e d6c1 aa3e
00000380: c431 573e 6285 4dbe ac76 523d a6ab 1b3f
00000390: 0410 bc3d 80c2 bfbd af46 d4be 3f55 abbe
000003a0: aee6 bcbe 0643 80be f967 e8bd 99a2 3cbd
000003b0: 6e0e cbbd 5c36 5fbe 338b a2be 989f bbbe
000003c0: 4bcf f8be 85d9 06bf fd8a 13bf e73b 22bf
000003d0: 11bd fcbe 7311 3abf 1fa3 3abf c86c 41bf
000003e0: 32e4 23bf 7915 15be 7e73 453e b052 053c
000003f0: 1736 88be 10ff 513e a3f9 59be 0200 e2be

lstm.weight_hh_l0 f4 [512, 128]
0.33921677 0.07154201 -0.55702984 0.6109971 0.44339854 -0.21526995 -0.20598283 -0.3835251
-0.04266536 -0.2551349 -0.13209552 -0.5916589 0.16722538 -0.37984732 0.14243694 0.0673939
0.4336344 -0.19300406 0.24268742 -0.47671863 -0.14881627 -0.01894584 0.24041395 -0.21382572
0.00073461724 -0.06037658 -0.24688484 0.49379086 0.27701488 -0.2178378 0.31519067 -0.32779294
0.094617955 0.56423026 0.08855698 0.18025213 -0.4391056 0.013577283 0.07726941 0.2653611
0.21815906 -0.057703886 0.11099076 0.22667076 -0.30314 -0.08937841 -0.18341266 0.016755478
-0.48999238 -0.36083618 -0.16527581 0.6755108 -0.10499438 -0.8828186 0.56611615 -0.006366671
-0.31930593 -0.25533897 -0.34611246 0.038291648 0.39237437 0.06544374 0.1317522 0.008694867
-0.3186401 -0.9659708 0.062481206 0.21416305 0.043640126 0.63647485 0.30243093 0.016620776
0.30609557 -0.11861025 -0.0659876 -0.9815088 0.004615063 0.16907114 -0.027710672 0.2384644
0.4009171 0.46861163 -0.108661965 0.16055775 0.27602774 -0.03576804 -0.32382593 -0.20347072
-0.33350405 0.5126448 0.2724297 -0.087424465 -0.31542948 -0.15377559 0.043412756 -0.055377614
0.7567877 0.016766595 0.30263668 -0.2221478 0.1511646 0.8277138 0.8188322 -0.03986481
0.682229 -0.52976745 0.13198213 0.22357942 0.13018374 0.09025139 0.044173338 -0.34826595
0.4583146 0.2485878 -0.42044312 -0.104435354 0.23709515 0.017335977 -0.052541595 0.27540272
0.46453023 -0.111484185 0.36220366 -0.55923796 -0.10456662 -0.44379455 0.3429503 0.023600504
-0.2668852 -0.048276342 -0.1794975 0.008194167 0.29082766 -0.40229967 0.013772079 0.46974432
-0.1003047 0.013658093 0.10400155 0.25536722 0.13377792 0.25066265 -0.056929618 0.05307241
-0.024815353 -0.17363633 0.087135606 0.1786077 -0.028464751 0.0015845207 -0.051000003 0.13532054
-0.053691763 -0.08123891 -0.24465527 0.62865937 -0.18123813 -0.14217868 0.034724746 -0.026412003
0.039169885 0.18451141 0.21313494 0.1828112 -0.023322303 0.051883712 0.18711594 -0.43869606
0.1753485 0.071262754 -0.32526773 0.10539971 -0.23081426 0.02797386 -0.16247086 0.058046717
-0.03604 -0.039897863 0.017401015 -0.14379065 0.06749148 -0.13025904 -0.061073005 0.14871663
-0.0020927114 0.36709413 0.1202527 0.2428229 0.52628314 -0.2794276 0.06146827 0.31876266
-0.2772723 -0.17272651 -0.02519159 0.1649572 -0.39212018 -0.04960965 -0.1765978 -0.18363428
0.0041113184 -0.30913213 0.0385365 0.1545935 -0.0400705 0.23362283 0.22449577 -0.14766547
-0.019756583 -0.43510813 -0.00939737 0.12546833 0.046469714 -0.088182054 -0.25951847 0.03583926
0.081524365 -0.0010197544 -0.15450446 -0.046895172 0.021723984 -0.095967814 -0.11549155 0.08804626
-0.17639613 0.041774813 -0.08808202 -0.029998166 -0.23111762 -0.1671814 -0.07757984 0.14337067
0.39041755 0.2612171 0.058587696 0.3013586 -0.0054876744 0.14607826 -0.011597325 0.16308801
-0.11515254 0.015485777 0.42824563 0.39274248 -0.08553723 -0.019249732 0.110439345 -0.11793354
-0.022356384 -0.1548451 0.39962262 -0.13752708 -0.014039271 0.03149778 -0.10988451 0.3181013
00000000: d2ad ad3e 9e84 923d 8299 0ebf 4e6a 1c3f
00000010: 2205 e33e ba6f 5cbe 2aed 52be 675d c4be
00000020: dfc1 2ebd 0ba1 82be 0c44 07be f576 17bf
00000030: 213d 2b3e 597b c2be fdda 113e d005 8a3d
00000040: 5405 de3e dba2 45be 0d83 783e 7714 f4be
00000050: 4b63 18be 4e34 9bbc 132f 763e 21f5 5abe
00000060: 5493 403a 6f4d 77bd 61cf 7cbe 28d2 fc3e
00000070: e5d4 8d3e df10 5fbe ac60 a13e 7ad4 a7be
00000080: 0fc7 c13d 6571 103f 5d5d b53d 0494 383e
00000090: 73d2 e0be 4173 5e3c 6d3f 9e3d 69dd 873e
000000a0: 1765 5f3e e95a 6cbd 204f e33d 611c 683e
000000b0: 2b35 9bbe 070c b7bd 87d0 3bbe c942 893c
000000c0: 48e0 fabe 85bf b8be 103e 29be 47ee 2c3f
000000d0: 4b07 d7bd 6600 62bf fdec 103f 829f d0bb
000000e0: 117c a3be cabb 82be a735 b1be b4d7 1c3d
000000f0: 4be5 c83e 5e07 863d 0cea 063e ea74 0e3c
00000100: cc24 a3be dd49 77bf 4bec 7f3d 8f4d 5b3e
00000110: fdbf 323d 04f0 223f 3ad8 9a3e 4b28 883c
00000120: 8fb8 9c3e eee9 f2bd 8224 87bd 2944 7bbf
00000130: f439 973b fc20 2d3e 7e01 e3bc 0330 743e
00000140: 0245 cd3e dded ef3e 2a8a debd 4069 243e
00000150: 8253 8d3e 8281 12bd 83cc a5be a15a 50be
00000160: 0bc1 aabe b13c 033f e87b 8b3e 990b b3bd
00000170: f97f a1be 5977 1dbe 93d1 313d a3d3 62bd
00000180: d7bc 413f 195a 893c 32f3 9a3e b67a 63be
00000190: e5ca 1a3e 0de5 533f fd9e 513f 4849 23bd
000001a0: 8fa6 2e3f d79e 07bf 5326 073e 01f2 643e
000001b0: e34e 053e b9d5 b83d 1aef 343d ea4f b2be
000001c0: 36a8 ea3e cd8d 7e3e 5244 d7be 34e2 d5bd
000001d0: 12c9 723e 2e04 8e3c db35 57bd 9601 8d3e
000001e0: e8d6 ed3e d251 e4bd c272 b93e 382a 0fbf
000001f0: 0627 d6bd 0a39 e3be 2f97 af3e d855 c13c
00000200: 2da5 88be 6abd 45bd 31ce 37be d440 063c
00000210: 5de7 943e 39fa cdbe 49a4 613c 5482 f03e
00000220: 8d6c cdbd 32c6 5f3c c4fe d43d 7ebf 823e
00000230: 14fd 083e db56 803e 082f 69bd 7562 593d
00000240: 9149 cbbc b9cd 31be 2774 b23d f0e4 363e
00000250: e92e e9bc b1af cf3a 61e5 50bd 7891 0a3e
00000260: e5eb 5bbd 9660 a6bd e986 7abe d2ef 203f
00000270: 7d96 39be 4a97 11be 893b 0e3d fc5d d8bc
00000280: 9a70 203d 8ff0 3c3e 0c40 5a3e dc32 3b3e
00000290: 6a0e bfbc 0484 543d 529b 3f3e c59c e0be
000002a0: 8f8e 333e 35f2 913d 7e89 a6be cedb d73d
000002b0: 935a 6cbe 7029 e53c c35e 26be 65c2 6d3d
000002c0: ae9e 13bd f16b 23bd 938c 8e3c db3d 13be
000002d0: f938 8a3d a062 05be b027 7abd 2c49 183e
000002e0: df25 09bb c3f3 bb3e 0c47 f63d 91a6 783e
000002f0: 7eba 063f 2211 8fbe 27c6 7b3d dc34 a33e
00000300: a3f6 8dbe 38df 30be 985e cebc 8aea 283e
00000310: fac3 c8be 7d33 4bbd 0ed6 34be a00a 3cbe
00000320: 3db8 863b 9146 9ebe 73d8 1d3d c24d 1e3e
00000330: f720 24bd d33a 6f3e 38e2 653e 9e35 17be
00000340: 8fd8 a1bc 7ec6 debe 6df7 19bc c57a 003e
00000350: 0757 3e3d cb98 b4bd 9bdf 84be 30cc 123d
00000360: 3ff6 a63d 48a9 85ba 6b36 1ebe 2715 40bd
00000370: 7ff6 b13c c68a c4bd d586 ecbd 9951 b43d
00000380: 30a1 34be 111c 2b3d 5964 b4bd b7be f5bc
00000390: 19aa 6cbe 9a31 2bbe 2ee2 9ebd c3cf 123e
000003a0: cfe4 c73e 3fbe 853e a7f9 6f3d ad4b 9a3e
000003b0: f3d1 b3bb 8a95 153e b502 3ebc 8b00 273e
000003c0: 18d5 ebbd 0eb8 7d3c 0343 db3e 8b15 c93e
000003d0: 252e afbd 9db1 9dbc 062e e23d 2487 f1bd
000003e0: bc24 b7bc b78f 1ebe 569b cc3e e6d3 0cbe
000003f0: f804 66bc d103 013d 210b e1bd 2cde a23e

lstm.bias_ih_l0 f4 [512]
-0.013404809 -0.13721263 -0.26030236 -0.54248863 -0.2792007 -0.24279417 -0.29611656 -0.24892914
-0.21619269 -0.17181723 -0.30930948 -0.4312544 -0.30907974 -0.23007834 -0.16652174 -0.39400426
-0.27950466 -0.38180113 -0.2384011 -0.32319653 -0.28910798 -0.07086389 -0.23042336 -0.69508207
-0.22026776 -0.19303082 -0.23139626 -0.14689286 -0.20089656 -0.11484417 -0.6038635 -0.20790602
-0.07963605 -0.19052649 -0.10110905 -0.25749326 -0.07372156 -0.27685603 -0.5982971 -0.014896803
-0.13442247 -0.100038536 -0.1923264 -0.29645634 -0.18838695 -0.4411253 -0.5859853 -0.5415261
-0.09381067 0.09409198 -0.24999319 -0.14563507 -0.44472158 -0.26548705 -0.22512211 -0.2903878
-0.13641529 -0.039717086 -0.35249734 -0.26576507 0.01911711 -0.43158635 -0.331388 -0.2948424
-0.13474683 0.0012187248 -0.35552612 -0.23701076 -0.54134476 -0.14239761 -0.70975745 -0.531719
-0.26370758 -0.13710736 -0.10858216 -0.21503903 -0.28992134 -0.37362063 -0.5197401 -0.053696934
-0.099218965 -0.11034779 -0.20607872 -0.21985026 -0.4597655 -0.3231742 -0.3508713 -0.37251216
-0.47160053 -0.3000608 -0.16393843 -0.18240008 -0.3879277 -0.08810881 -0.2874057 -0.35645384
-0.04305766 -0.12162047 -0.6473651 -0.50601137 -0.3815352 -0.4367325 -0.31524515 -0.15003061
-0.014042689 -0.24586913 -0.10087546 -0.07795499 -0.42482576 -0.44488397 -0.46456924 -0.09413409
-0.46054202 -0.14387688 -0.36633867 -0.075581156 -0.18507063 -0.5307569 -0.22496022 -0.3881278
-0.38507137 -0.06644142 -0.44564843 -0.32621276 -0.005184633 -0.6844567 -0.2852552 -0.11593665
0.026986271 -0.23255223 -0.17656066 -0.13577886 -0.20151268 0.095576555 -0.17622444 -0.114899166
-0.087412275 0.027666066 -0.1078129 -0.18782602 -0.22512633 -0.017001214 -0.10092557 -0.16040921
-0.08555217 -0.06121967 -0.41538984 -0.020348284 0.045951385 0.09700219 -0.14935428 0.03568396
-0.06508033 -0.22478643 -0.22027236 -0.50970966 -0.007006213 -0.19301242 -0.3966203 -0.10122362
-0.13363153 0.041655082 -0.16412929 -0.340676 0.03226051 -0.22220154 -0.124700904 -0.03372545
0.40186834 -0.27673614 -0.23917483 0.18069598 -0.0334524 -0.2869154 -0.07752243 -0.2367131
-0.25425914 -0.07750718 -0.2972259 -0.22339357 -0.28054586 0.12740189 -0.13716863 0.0811729
-0.13444155 -0.33926603 -0.04321015 -0.08332744 -0.14871536 -0.3265192 0.03544358 -0.02277486
-0.058634587 -0.29376465 -0.17524473 -0.27298334 -0.12180309 0.09875332 -0.0152954925 -0.21793477
-0.1264231 -0.24316321 -0.0972724 -0.29561 -0.09415988 -0.21334031 -0.057636194 -0.1227372
-0.048958816 -0.017939 -0.023944488 -0.28065512 0.0046791886 -0.070662946 -0.2061304 -0.034994047
-0.37297755 0.26597205 -0.18448906 -0.30193216 -0.3411708 -0.24946095 -0.09271737 -0.12142008
-0.20788184 -0.020201242 -0.050570134 0.08616016 -0.30999184 -0.13475616 -0.38451707 -0.28731295
-0.102910616 -0.21327145 0.12864347 -0.1616999 -0.22469628 0.04530285 -0.26128057 -0.10554739
-0.03430489 -0.10264691 -0.020498032 -0.15893075 -0.019893507 -0.21755317 -0.28463984 -0.084860824
-0.43958297 -0.10791012 0.1447996 0.07886554 -0.0211661 0.11828946 0.07222391 -0.38424858
00000000: d89f 5bbc 7881 0cbe 5a46 85be 89e0 0abf
00000010: 65f3 8ebe 099f 78be 979c 97be 48e7 7ebe
00000020: 9e61 5dbe dbf0 2fbe d05d 9ebe 60cd dcbe
00000030: b33f 9ebe a899 6bbe ad84 2abe edba c9be
00000040: 3c1b 8fbe 707b c3be 6b1f 74be 047a a5be
00000050: f605 94be 1621 91bd 1af4 6bbe e6f0 31bf
00000060: df8d 61be dfa9 45be 24f3 6cbe 156b 16be
00000070: d4b7 4dbe 6c33 ebbd cc96 1abf 51e5 54be
00000080: 3a18 a3bd 6019 43be 4312 cfbd 28d6 83be
00000090: 54fb 96bd 13c0 8dbe 002a 19bf b811 74bc
000000a0: 0ba6 09be 01e1 ccbd 36f1 44be 20c9 97be
000000b0: 82e8 40be 2ddb e1be 2203 16bf 74a1 0abf
000000c0: cf1f c0bd 4cb3 c03d 37fe 7fbe 5c21 15be
000000d0: 8cb2 e3be ebed 87be 6986 66be b6ad 94be
000000e0: 73b0 0bbe 62ae 22bd 887a b4be 5c12 88be
000000f0: 7c9b 9c3c e3f8 dcbe b0ab a9be 95f5 96be
00000100: 13fb 09be 9ebd 9f3a 8507 b6be f3b2 72be
00000110: 9295 0abf aed0 11be aab2 35bf bd1e 08bf
00000120: ae04 87be df65 0cbe 5360 debd 3133 5cbe
00000130: 9270 94be 344b bfbe b00d 05bf 51f1 5bbd
00000140: 5033 cbbd 06fe e1bd 4d06 53be 6d20 61be
00000150: 6266 ebbe 1777 a5be 67a5 b3be eab9 bebe
00000160: a075 f1be 92a1 99be 7adf 27be 16c7 3abe
00000170: 769e c6be 6472 b4bd d726 93be 1e81 b6be
00000180: 3b5d 30bd 2714 f9bd b8b9 25bf f689 01bf
00000190: 9558 c3be 679b dfbe d067 a1be a0a1 19be
000001a0: 4f13 66bc 1ec5 7bbe cb97 cebd dea6 9fbd
000001b0: c382 d9be d5c7 e3be 05dc edbe 60c9 c0bd
000001c0: 2acc ebbe 7654 13be be90 bbbe 4bca 9abd
000001d0: 2883 3dbe afdf 07bf f95b 66be b0b8 c6be
000001e0: 1328 c5be 7012 88bd 082c e4be 5c05 a7be
000001f0: dbe3 a9bb 8e38 2fbf f80c 92be 3270 edbd
00000200: 5012 dd3c 2c22 6ebe 51cc 34be 9d09 0bbe
00000210: 5759 4ebe a4bd c33d 2e74 34be 4150 ebbd
00000220: 3505 b3bd f2a3 e23c 02cd dcbd 7755 40be
00000230: 8487 66be 2146 8bbc 11b2 cebd 5042 24be
00000240: fa35 afbd 7ac1 7abd faad d4be 72b1 a6bc
00000250: 8537 3c3d 16a9 c63d 54f0 18be 5829 123d
00000260: d648 85bd 6a2e 66be 148f 61be 557c 02bf
00000270: 6094 e5bb 0ca5 45be d111 cbbe 544e cfbd
00000280: b4d6 08be 859e 2a3d 8211 28be 166d aebe
00000290: 9923 043d cd88 63be 3063 ffbd b323 0abd
000002a0: b0c1 cd3e 5cb0 8dbe 3fea 74be 5e08 393e
000002b0: 6205 09bd 93e6 92be 14c4 9ebd eb64 72be
000002c0: 412e 82be 16bc 9ebd fe2d 98be 49c1 64be
000002d0: b5a3 8fbe a475 023e ef75 0cbe fa3d a63d
000002e0: 0cab 09be 47b4 adbe 20fd 30bd 94a7 aabd
000002f0: d748 18be 862d a7be 4a2d 113d 5892 babc
00000300: d22a 70bd 5268 96be 5b73 33be 79c4 8bbe
00000310: e673 f9bd 2e3f ca3d f299 7abc 4b2a 5fbe
00000320: 0f75 01be c7ff 78be c136 c7bd 325a 97be
00000330: e5d6 c0bd e275 5abe ee13 6cbd a45d fbbd
00000340: 0a89 48bd cff4 92bc 3b27 c4bc 07b2 8fbe
00000350: e153 993b bcb7 90bd d913 53be eb55 0fbd
00000360: eaf6 bebe 7d2d 883e b3ea 3cbe da96 9abe
00000370: f0ad aebe b172 7fbe 9be2 bdbd 17ab f8bd
00000380: fade 54be 137d a5bc a122 4fbd bd74 b03d
00000390: 40b7 9ebe 85fd 09be 6cdf c4be af1a 93be
000003a0: cdc2 d2bd d563 5abe 1dbb 033e a994 25be
000003b0: c816 66be 7b8f 393d 91c6 85be 3b29 d8bd
000003c0: 4983 0cbd 8b38 d2bd 7deb a7bc bebe 22be
000003d0: b5f7 a2bc 42c6 5ebe 50bc 91be 83cb adbd
000003e0: 0511 e1be fbff dcbd 5946 143e 4284 a13d
000003f0: 8764 adbc bf41 f23d 21ea 933d 3bbc c4be

lstm.bias_hh_l0 f4 [512]
-0.036584243 -0.27127182 -0.24315107 -0.53775895 -0.27370068 -0.25624534 -0.23252654 -0.28559485
-0.23526862 -0.18679857 -0.36872917 -0.41666767 -0.39689794 -0.22342496 -0.07407367 -0.3601631
-0.30229276 -0.32612053 -0.16834286 -0.3304185 -0.1499988 0.021986643 -0.23507994 -0.6699717
-0.19398868 -0.24165003 -0.117009684 -0.17903371 -0.19432934 -0.10412376 -0.7189249 -0.12146008
0.033870023 -0.2295951 -0.15133123 -0.15911524 0.004605464 -0.35470715 -0.5913188 -0.0070572784
-0.26204515 -0.064260304 -0.29878452 -0.32070315 -0.14580968 -0.448507 -0.48574343 -0.48554865
-0.24292997 0.06254123 -0.19178644 -0.22357337 -0.3730748 -0.26655304 -0.26746875 -0.29458907
-0.06976237 -0.095258646 -0.36294302 -0.29069465 -0.052949414 -0.47500986 -0.18942726 -0.14548862
-0.23246223 0.09433942 -0.36534926 -0.2757244 -0.48443303 -0.18822047 -0.6796168 -0.39427948
-0.2105029 -0.24035086 -0.16899239 -0.15282167 -0.37616763 -0.40425467 -0.49541777 -0.027052246
-0.14235035 -0.22396925 -0.26314938 -0.24340956 -0.3431919 -0.20252773 -0.37981978 -0.24233986
-0.45237678 -0.32066533 -0.07133238 -0.2724717 -0.30690524 -0.19052516 -0.3301528 -0.35027194
-0.03912271 -0.07285544 -0.6762098 -0.34407157 -0.4591638 -0.28031093 -0.3695041 -0.2655605
0.016225088 -0.14401971 -0.15758313 -0.13778263 -0.44407845 -0.4218165 -0.40055326 -0.22194256
-0.40171725 -0.18894078 -0.4011801 -0.19970156 -0.15495007 -0.5435262 -0.2909645 -0.3806108
-0.2853224 0.017016985 -0.50193065 -0.32437986 0.003488198 -0.6773955 -0.25067937 -0.14060032
0.11194748 -0.20163746 -0.1267602 -0.22970378 -0.14748326 0.1370476 -0.09262776 -0.08253902
-0.033228908 -0.04272918 -0.21776663 -0.17319113 -0.10863522 0.0697307 -0.092904955 -0.22449778
-0.18612877 -0.004293614 -0.3152969 -0.10424223 0.04627283 -0.0025443854 -0.22381745 -0.10215787
-0.04316513 -0.20109093 -0.20548597 -0.4981376 -0.12366527 -0.19831455 -0.29195985 -0.20652889
0.0022111183 0.045217123 -0.15371092 -0.3141789 0.021029407 -0.25870597 -0.20011851 0.07547564
0.38484067 -0.39678383 -0.2113447 0.15139498 -0.1022553 -0.25356308 -0.043542825 -0.21026339
-0.17082357 -0.06757125 -0.19167061 -0.103783295 -0.19099364 0.0070199072 -0.24838291 -0.019289296
-0.09188371 -0.36981383 -0.06126177 -0.15283817 -0.033617534 -0.31968695 0.16435698 -0.13717094
0.018740218 -0.18098482 -0.2066232 -0.24069814 -0.08471469 0.10678895 0.07605606 -0.29276845
-0.0030392127 -0.2881085 -0.089443505 -0.24141283 -0.1290611 -0.2041048 -0.10385287 -0.014020468
-0.16197644 -0.12320797 0.05917437 -0.28138426 -0.057592306 0.059704114 -0.305651 0.061079074
-0.37188876 0.24936402 -0.21627074 -0.25909764 -0.22398417 -0.17298953 -0.0683388 -0.18664765
-0.20960057 -0.020831073 0.057898857 0.064778425 -0.30851877 -0.11503335 -0.31658414 -0.3659947
-0.15824828 -0.22047393 0.11877207 -0.02851202 -0.21368071 0.11016321 -0.1474639 -0.17513491
0.08848615 -0.07699134 -0.15893051 -0.112399556 -0.06335037 -0.16876277 -0.34721962 -0.15266082
-0.31547025 -0.059953656 0.20168342 0.004180998 -0.008428729 0.085587345 -0.012735544 -0.39892966
00000000: 5cd9 15bd 24e4 8abe 98fc 78be 92aa 09bf
00000010: 7f22 8cbe 9732 83be 701b 6ebe 7d39 92be
00000020: 42ea 70be 2048 3fbe 12ca bcbe 7755 d5be
00000030: 3536 cbbe 83c9 64be f0b3 97bd 4c67 b8be
00000040: 1ec6 9abe 45f9 a6be 1262 2cbe 9d2c a9be
00000050: 4999 19be 551d b43c ccb8 70be 4483 2bbf
00000060: f8a4 46be 1b73 77be c6a2 efbd 9d54 37be
00000070: 45fe 46be d63e d5bd 760b 38bf 10c0 f8bd
00000080: 4bbb 0a3d fa1a 6bbe 93f6 1abe 1bef 22be
00000090: 6fe9 963b 2d9c b5be ab60 17bf be40 e7bb
000000a0: c82a 86be e89a 83bd 49fa 98be 3433 a4be
000000b0: 224f 15be b6a2 e5be 5db3 f8be d599 f8be
000000c0: a2c2 78be 9e15 803d aa63 44be 6bf0 64be
000000d0: a903 bfbe a479 88be aaf1 88be 61d4 96be
000000e0: 93df 8ebd f716 c3bd abd3 b9be eed5 94be
000000f0: 7ce1 58bd 7e34 f3be 38f9 41be f8fa 14be
00000100: 940a 6ebe 0735 c13d 0f0f bbbe c02b 8dbe
00000110: 9b07 f8be debc 40be 5efb 2dbf 00df c9be
00000120: 128e 57be 891e 76be 570c 2dbe 497d 1cbe
00000130: 0b99 c0be 78fa cebe 66a7 fdbe ac9c ddbc
00000140: 4ac4 11be 3258 65be 84bb 86be 5b40 79be
00000150: d9b6 afbe 6e63 4fbe bd77 c2be f127 78be
00000160: ee9d e7be 3f2e a4be b616 92bd 6981 8bbe
00000170: af22 9dbe 0719 43be ca09 a9be d856 b3be
00000180: 223f 20bd 3c35 95bd 161c 2dbf 262a b0be
00000190: 8517 ebbe ea84 8fbe a42f bdbe 8cf7 87be
000001a0: 7aea 843c e779 13be 795d 21be e416 0dbe
000001b0: 405e e3be 55f8 d7be 5115 cdbe e944 63be
000001c0: e2ad cdbe b179 41be 7a67 cdbe 917e 4cbe
000001d0: 3bab 1ebe 8824 0bbf 4df9 94be 6bdf c2be
000001e0: c715 92be 3467 8b3c 877e 00bf 1e15 a6be
000001f0: 409a 643b cb69 2dbf 0c59 80be 88f9 0fbe
00000200: b844 e53d 0d7a 4ebe 6dcd 01be 7837 6bbe
00000210: da05 17be 3556 0c3e 9fb3 bdbd 380a a9bd
00000220: 091b 08bd cb04 2fbd 37fe 5ebe 0459 31be
00000230: 247c debd f8ce 8e3d f444 bebd bfe2 65be
00000240: 8a98 3ebe 72b1 8cbb 986e a1be f37c d5bd
00000250: 9488 3d3d b4bf 26bb 6730 65be 2538 d1bd
00000260: ebcd 30bd c8ea 4dbe ea6a 52be e40b ffbe
00000270: 3844 fdbd f812 4bbe c37b 95be 4f7c 53be
00000280: 69e8 103b 9735 393d 6566 1dbe 0fdc a0be
00000290: dd45 ac3c 1c75 84be deeb 4cbe f992 9a3d
000002a0: d609 c53e 4027 cbbe bf6a 58be 4907 1b3e
000002b0: 3a6b d1bd 05d3 81be f659 32bd 494f 57be
000002c0: 60ec 2ebe cc62 8abd 4d45 44be 568c d4bd
000002d0: d693 43be 4007 e63b 1758 7ebe 9604 9ebc
000002e0: 872d bcbd 3d58 bdbe 9fed 7abd 9c81 1cbe
000002f0: 8ab2 09bd 02ae a3be 324d 283e 8a76 0cbe
00000300: 1685 993c 1654 39be 0895 53be 9379 76be
00000310: e57e adbd 2ab4 da3d 48c3 9b3d bfe5 95be
00000320: 872d 47bb f582 93be 282e b7bd ed34 77be
00000330: 9828 04be d900 51be d0b0 d4bd 1bb6 65bc
00000340: 27dd 25be 7654 fcbd d360 723d 9911 90be
00000350: e9e5 6bbd 4d8c 743d 4a7e 9cbe 0d2e 7a3d
00000360: 3468 bebe 4859 7f3e 1476 5dbe 72a8 84be
00000370: 1b5c 65be 2b24 31be 36f5 8bbd 9020 3fbe
00000380: 88a1 56be eda5 aabc 5a27 6d3d 8daa 843d
00000390: 2cf6 9dbe 9b96 ebbd 5117 a2be a863 bbbe
000003a0: d60b 22be ebc3 61be c53e f33d 0a92 e9bc
000003b0: 1ecf 5abe 409d e13d c700 17be 9156 33be
000003c0: 3a38 b53d a3ad 9dbd aebe 22be bd31 e6bd
000003d0: d7bd 81bd 26d0 2cbe c5c6 b1be 1e53 1cbe
000003e0: 5185 a1be f791 75bd 1986 4e3e c100 893b
000003f0: a718 0abc 6b48 af3d bea8 50bc 8240 ccbe

lstm.weight_ih_l1 f4 [512, 128]
0.31310225 -0.5570919 -0.46289122 0.27863473 -0.0969089 0.102703385 -0.6566743 0.2922997
0.15126401 -0.35447764 0.14622691 0.19338413 0.056888904 -0.58309776 0.24870059 0.20668647
0.25986707 -0.06577883 0.063620485 -0.27185497 -0.3016015 -0.7225167 0.2582581 0.3958749
0.07067846 0.8787139 0.15748198 -0.7878932 -0.15708882 0.22258945 -0.25334743 0.4169356
-0.15207279 0.064706534 0.45604396 -1.1085877 -0.45364797 0.03405233 0.10661449 -0.7678215
0.027313357 0.5905649 0.16898158 0.3164485 -0.42589384 -0.020772396 -0.26916048 0.27402416
-0.30839762 0.14543669 -0.29369184 0.7149089 0.7548904 -0.3181479 0.5918551 0.34660575
0.65153426 -0.80113363 -0.3055155 0.11098207 0.18494126 0.36656383 -0.24995424 -0.26651713
-0.27373505 -0.16675876 -0.70288056 -0.1469136 0.6927282 0.8929108 0.52949387 0.014913815
-0.3550277 0.2381085 -0.6577601 -0.30435097 -0.04796883 0.107111335 -0.16345344 0.45477623
0.5061029 0.6076683 0.24949235 -0.2819602 0.64566517 -0.053969286 -0.1029942 -0.5292581
0.26218906 0.51750416 0.5945622 0.12988451 -0.37075487 -0.14586675 0.55089235 -0.44267198
0.06747625 0.27055234 0.1949859 0.17909391 0.36889586 -0.33690178 0.46725783 -0.12682611
0.19988918 0.8400154 -0.09731864 -0.27080333 -0.3731918 0.030634658 0.04395052 -0.47544584
0.23138994 -0.66225314 -0.19814318 -0.3175236 0.3738413 0.3938627 -0.3240106 -0.25188535
0.6463513 0.5669282 0.041521672 -0.5312039 -0.50155735 -0.43981823 0.4810915 -0.28336385
-0.5051207 0.50571966 -0.24274366 -0.14448445 0.059165634 0.1851874 0.054764245 -0.3239211
0.28989136 0.52068365 0.27956942 -0.15577272 0.10517316 0.03884359 0.2218868 -0.4734911
-0.052137583 0.56185657 -0.26885134 0.14109029 -0.21528949 0.2356629 -0.108868286 -0.18212688
0.07988905 -0.49747333 -0.24750967 0.32893708 -0.58656967 -0.32670197 -0.40426564 -0.67761797
0.27454045 0.104482375 0.32128096 0.3310145 0.194767 -0.3357463 0.16485532 0.45431438
0.17510717 -0.15036653 0.14524235 -0.3027174 0.055663105 0.42697367 -0.35677016 -0.31537774
0.11015428 -0.18145779 0.539425 -0.39458254 0.35572124 0.16312215 -0.27295104 -0.1792314
-0.4744033 0.5435782 -0.21528783 0.052854232 -0.09845437 0.049609993 0.13560112 0.0016734223
0.109607026 -0.38276976 0.0077690207 -0.17613913 0.10244338 -0.6477989 -0.5961618 -0.16461353
-0.73147243 -0.098909244 0.06794372 0.0459222 0.3456751 -0.12319293 0.080494516 0.256226
0.25653553 -0.019107666 -0.20990683 -0.4508985 -0.052595407 0.6150989 -0.14660555 -0.03521389
0.05520859 -0.5311899 -0.23490487 -0.28003055 0.081594825 0.8170344 -0.17327076 0.32799968
-0.15397735 0.12874876 -0.07191536 -0.20522575 -0.10801914 0.24708773 0.09708733 0.19854005
-0.20185935 -0.66586125 0.18697338 0.4034221 0.5194299 -0.30820546 0.17519142 0.14264038
0.1528048 0.45381373 0.00017593906 0.01804804 -0.55520016 0.11850901 0.26859164 -0.18834566
0.1990798 -0.57888746 -0.71912634 0.660325 0.104744114 0.45903197 -0.12413381 -0.019916661
00000000: f04e a03e 939d 0ebf 1400 edbe 36a9 8e3e
00000010: 2c78 c6bd 2756 d23d cf1b 28bf 4ea8 953e
00000020: f4e4 1a3e 187e b5be 82bc 153e 7d06 463e
00000030: 5704 693d e545 15bf 5eab 7e3e 9ea5 533e
00000040: 4c0d 853e 0db7 86bd 754b 823d 9330 8bbe
00000050: 836b 9abe dbf6 38bf 683a 843e 1db0 ca3e
00000060: debf 903d 65f3 603f f542 213e 5eb3 49bf
00000070: e4db 20be 7dee 633e c1b6 81be 9578 d53e
00000080: f8b8 1bbe dc84 843d 987e e93e 34e6 8dbf
00000090: 8c44 e8be 757a 0b3d b358 da3d f38f 44bf
000000a0: 43c0 df3c 432f 173f 8209 2d3e 8a05 a23e
000000b0: c20e dabe df2a aabc 67cf 89be e54c 8c3e
000000c0: 4be6 9dbe 5bed 143e c75e 96be 4504 373f
000000d0: 7f40 413f 48e4 a2be d183 173f 4f76 b13e
000000e0: f3ca 263f 1817 4dbf 876c 9cbe 914a e33d
000000f0: 3e61 3d3e 41ae bb3e 01f4 7fbe ef74 88be
00000100: 0027 8cbe cfc2 2abe fbef 33bf 8570 16be
00000110: a356 313f cd95 643f e98c 073f 1359 743c
00000120: 31c6 b5be b7d2 733e f762 28bf e4d3 9bbe
00000130: f77a 44bd 305d db3d 5760 27be 6ed8 e83e
00000140: f68f 013f 2690 1b3f ec7a 7f3e 165d 90be
00000150: 504a 253f e60e 5dbd a0ee d2bd 757d 07bf
00000160: a53d 863e 277b 043f 3a35 183f 7200 053e
00000170: 95d3 bdbe 185e 15be 4807 0d3f e7a5 e2be
00000180: fd30 8a3d d685 8a3e 62aa 473e 6564 373e
00000190: ebdf bc3e 647e acbe 6b3c ef3e b4de 01be
000001a0: c0af 4c3e 400b 573f ff4e c7bd bca6 8abe
000001b0: ff12 bfbe 89f5 fa3c 7605 343d a36d f3be
000001c0: 7cf1 6c3e 6c89 29bf 0ce6 4abe 7492 a2be
000001d0: 2068 bf3e 5fa8 c93e b8e4 a5be 1ef7 80be
000001e0: 4777 253f 3522 113f a112 2a3d fbfc 07bf
000001f0: 1066 00bf db2f e1be a051 f63e 1115 91be
00000200: 974f 01bf d876 013f cb91 78be bbf3 13be
00000210: aa57 723d c4a1 3d3e 7950 603d fdd8 a5be
00000220: a46c 943e 864b 053f b923 8f3e e282 1fbe
00000230: 0765 d73d 751a 1f3d 4b36 633e 6d6d f2be
00000240: 388e 55bd d5d5 0f3f e2a6 89be f979 103e
00000250: d974 5cbe 9e51 713e 56f6 debd 787f 3abe
00000260: df9c a33d d3b4 febe 2d73 7dbe 716a a83e
00000270: 6e29 16bf 7b45 a7be e8fb cebe 5f78 2dbf
00000280: 9190 8c3e dbfa d53d f07e a43e bc7a a93e
00000290: 0071 473e f0e6 abbe d5cf 283e e59b e83e
000002a0: 4b4f 333e aff9 19be 69ba 143e c6fd 9abe
000002b0: fffe 633d 4b9c da3e 94aa b6be 3179 a1be
000002c0: 9198 e13d 12d0 39be c217 0a3f b906 cabe
000002d0: 1821 b63e 7e09 273e 3dc0 8bbe 7088 37be
000002e0: fde4 f2be f127 0b3f 6a74 5cbe ae7d 583d
000002f0: 72a2 c9bd d933 4b3d 05db 0a3e bc56 db3a
00000300: a679 e03d 66fa c3be 4593 fe3b d15d 34be
00000310: d6cd d13d 26d6 25bf 0f9e 18bf 7390 28be
00000320: c741 3bbf ee90 cabd 1426 8b3d eb18 3c3d
00000330: 54fc b03e 934c fcbd 4fda a43d 0e30 833e
00000340: a058 833e ae87 9cbc d1f1 56be 2bdc e6be
00000350: 486e 57bd 1f77 1d3f c41f 16be 713c 10bd
00000360: 6722 623d 10fc 07bf e78a 70be 2a60 8fbe
00000370: 301b a73d 2b29 513f e46d 31be 93ef a73e
00000380: 3dac 1dbe b7d6 033e 5c48 93bd b326 52be
00000390: 2439 ddbd 9104 7d3e b9d5 c63d 154e 4b3e
000003a0: 38b4 4ebe e275 2abf f375 3f3e 578d ce3e
000003b0: 5cf9 043f 1bcd 9dbe 6165 333e 5210 123e
000003c0: dd78 1c3e 465a e83e 487c 3839 7cd9 933c
000003d0: 9921 0ebf dab4 f23d d884 893e afdd 40be
000003e0: 93db 4b3e f831 14bf aa18 38bf 0f0b 293f
000003f0: 1584 d63d 3d06 eb3e de39 febd 4428 a3bc

lstm.weight_hh_l1 f4 [512, 128]
-0.15990499 -0.083598495 -0.1637798 0.01091958 0.2793377 0.023550924 0.060467318 0.17471884
0.047021147 -0.108682446 0.19975579 -0.11253798 0.3132669 -0.13220327 -0.00028797146 0.33044955
0.009092075 0.07900439 -0.09828836 -0.20478632 0.18199506 -0.06888611 0.13147946 -0.5154822
-0.29885495 -0.060896523 -0.0022321315 -0.08048679 0.19476214 0.19772232 0.080917574 0.1947277
0.1019964 -0.08127028 -0.13794193 -0.22417001 0.22762614 0.35753828 0.09245752 0.46425763
-0.37530828 0.0328514 -0.06392514 -0.07581807 0.03661324 -0.072984464 -0.06536604 0.044264834
-0.06998017 0.18486612 0.024743391 -0.043121543 -0.29998347 -0.24762215 -0.12750806 0.15215099
0.34380978 0.057228792 0.26934394 -0.16072953 -0.3206015 -0.037181642 -0.033767078 -0.3517793
0.08664279 -0.23957175 -0.103973076 0.17051083 0.037981566 -0.21398623 0.0110614635 -0.014222241
-0.026414875 0.09015949 -0.020383311 -0.050367855 -0.14664854 0.29574758 0.040512986 0.0019704048
-0.09233226 0.4932843 -0.25294936 0.13335118 0.20453009 -0.13610607 0.005257292 -0.14821145
0.0072603966 -0.20661551 -0.333334 -0.2736504 0.15498814 -0.18464564 0.39117178 0.009741591
0.012094758 0.07849583 -0.07743926 -0.20581287 0.15392222 0.029708777 0.1498681 0.0824457
-0.20359842 0.015686238 -0.008208209 -0.1445806 0.093253255 -0.25447285 -0.17220467 -0.03511273
-0.04609515 0.017654035 0.02087295 -0.21433102 -0.38100576 -0.046600442 -0.22946449 -0.11555984
0.023868257 0.3430854 0.10444298 0.025818221 -0.05288276 0.16571939 -0.17458372 -0.18242319
0.2984795 0.110887796 -0.050078023 0.56781554 0.2446733 0.17660901 0.31432408 0.25752026
0.1578475 -0.043660536 0.7212485 -0.009079566 -0.7103248 -0.01717699 0.061753627 -0.021326121
-0.06869352 -0.04811811 0.039219838 -0.23648378 -0.27804142 0.036191385 0.25835854 0.058997728
0.38909233 -0.66737646 0.3161567 -0.06527096 -0.2199443 -0.20256706 -0.17757553 -0.06804957
0.56627935 -0.45153478 0.088216886 0.6457388 -0.078262284 -0.3810695 0.44506484 -0.37791392
-0.17537926 0.015767826 0.23209263 -0.34175748 -0.095486626 0.2915707 -0.32957402 0.11296436
-0.27081093 0.046131723 -0.25269255 0.0665172 -0.2029753 0.60833 -0.5636617 -0.49369213
-0.011305289 -0.31498602 -0.049627367 -0.04376037 0.27550423 -0.28355423 0.14103886 0.13189675
-0.06559343 0.17839967 0.37262842 -0.23614253 -0.07962723 -0.3217024 -0.07960032 -0.23180258
0.51812446 0.14118767 -0.26065126 0.09443577 -0.11499754 -0.110161565 -0.22313353 0.006368556
-0.48085812 -0.12348455 -0.07056738 -0.051722128 0.1894507 -0.16360089 0.23558149 0.32711324
-0.19964479 -0.10474239 0.31548414 0.054984663 -0.055922534 -0.1525354 -0.032942094 0.10644505
0.12978116 -0.16565937 -0.30496722 -0.29597718 -0.34654006 0.48476183 -0.1481875 0.03395391
-0.21206068 -0.047734145 0.040420745 0.4538931 0.02402376 0.08386328 0.16140054 0.17399205
-0.012652452 -0.20153984 0.39839426 0.7124563 -0.10360155 -0.052426055 0.21190792 0.39140564
-0.05716396 -0.0214865 -0.120197535 0.08779666 -0.07540973 -0.0017377166 0.18843202 -0.18153541
00000000: 22be 23be b035 abbd e4b5 27be 0ae8 323c
00000010: 5a05 8f3e deed c03c 94ac 773d 7fe9 323e
00000020: 3f99 403d e794 debd c88c 4c3e 507a e6bd
00000030: 8564 a03e 4b60 07be e0fa 96b9 af30 a93e
00000040: edf6 143c 0ecd a13d 684b c9bd 81b3 51be
00000050: ea5c 3a3e 2914 8dbd 8da2 063e a4f6 03bf
00000060: 8403 99be a26e 79bd f448 12bb 42d6 a4bd
00000070: ba6f 473e b877 4a3e 1db8 a53d b366 473e
00000080: 7de3 d03d 0871 a6bd a640 0dbe d38c 65be
00000090: d416 693e 420f b73e 5e5a bd3d 2db3 ed3e
000000a0: 6828 c0be 318f 063d 2feb 82bd 8146 9bbd
000000b0: c4f7 153d e178 95bd a1de 85bd 0b4f 353d
000000c0: c351 8fbd 8b4d 3d3e a7b2 ca3c 37a0 30bd
000000d0: 6f97 99be a990 7dbe 7991 02be 78cd 1b3e
000000e0: d607 b03e bd68 6a3d 73e7 893e 4896 24be
000000f0: e125 a4be c74b 18bd 594f 0abd 6b1c b4be
00000100: c671 b13d 4c52 75be d6ef d4bd 649a 2e3e
00000110: 8f92 1b3d 351f 5bbe 243b 353c 6704 69bc
00000120: 0264 d8bc 8aa5 b83d e7fa a6bc 864e 4ebd
00000130: 092b 16be 3a6c 973e f2f0 253d e821 013b
00000140: b218 bdbd c38f fc3e 9482 81be 368d 083e
00000150: 5670 513e 645f 0bbe 5d45 ac3b bec4 17be
00000160: 9fe8 ed3b 0493 53be c1aa aabe e81b 8cbe
00000170: 36b5 1e3e bf13 3dbe ab47 c83e 329b 1f3c
00000180: 1829 463c 6cc2 a03d 7a98 9ebd 9cc0 52be
00000190: c99d 1d3e d25f f33c 0677 193e 4bd9 a83d
000001a0: 1b7c 50be 6d80 803c b97b 06bc f00c 14be
000001b0: 90fb be3d 444a 82be 6c56 30be 5ed2 0fbd
000001c0: 45ce 3cbd 329f 903c c0fd aa3c 9779 5bbe
000001d0: 3013 c3be 1be0 3ebd bdf8 6abe a3aa ecbd
000001e0: 5d87 c33c e4a8 af3e 33e6 d53d bc80 d33c
000001f0: 989b 58bd 58b2 293e 13c6 32be 25cd 3abe
00000200: 4ed2 983e 2419 e33d 9d1e 4dbd 5c5c 113f
00000210: a38b 7a3e fed8 343e 16ef a03e b2d9 833e
00000220: c6a2 213e 64d5 32bd bea3 383f 76c2 14bc
00000230: d9d7 35bf c2b6 8cbc 5ff1 7c3d 1eb4 aebc
00000240: 30af 8cbd 7f17 45bd fba4 203d ce28 72be
00000250: 725b 8ebe 6b3d 143d 9247 843e 9aa7 713d
00000260: 1c37 c73e 2fd9 2abf 4adf a13e c8ac 85bd
00000270: 1439 61be bd6d 4fbe 5cd6 35be 935d 8bbd
00000280: aff7 103f 912f e7be 0eab b43d 234f 253f
00000290: fa47 a0bd 8b1b c3be 8adf e33e ef7d c1be
000002a0: 9f96 33be 872b 813c b1a9 6d3e d6fa aebe
000002b0: 7e8e c3bd c148 953e edbd a8be dc59 e73d
000002c0: bba7 8abe 9ef4 3c3d eb60 81be 2b3a 883d
000002d0: c2d8 4fbe 84bb 1b3f 224c 10bf 37c5 fcbe
000002e0: d239 39bc d945 a1be 1146 4bbd 133e 33bd
000002f0: e40e 8d3e 052e 91be 7e6c 103e f10f 073e
00000300: d955 86bd 67ae 363e 27c9 be3e 59cf 71be
00000310: 9a13 a3bd 2db6 a4be 7e05 a3bd a85d 6dbe
00000320: cea3 043f 8093 103e 1574 85be 8a67 c13d
00000330: d583 ebbd 639c e1bd 1e7d 64be 52af d03b
00000340: 0933 f6be 78e5 fcbd a185 90bd 95da 53bd
00000350: 5dff 413e fe86 27be 463c 713e 637b a73e
00000360: af6f 4cbe 2e83 d6bd 2387 a13e 9937 613d
00000370: 070f 65bd 3d32 1cbe 4aee 06bd ddff d93d
00000380: 5ae5 043e 9ca2 29be aa24 9cbe 528a 97be
00000390: b36d b1be b432 f83e 77be 17be 4113 0b3d
000003a0: 6f26 59be e184 43bd 3990 253d ad64 e83e
000003b0: 7acd c43c 83c0 ab3d 2f46 253e f92a 323e
000003c0: 3b4c 4fbc 7660 4ebe 55fa cb3e 8963 363f
000003d0: 0d2d d4bd b4bc 56bd 64fe 583e 5266 c83e
000003e0: c224 6abd 7504 b0bc 202a f6bd bcce b33d
000003f0: 6b70 9abd 18c4 e3ba 53f4 403e 6be4 39be

lstm.bias_ih_l1 f4 [512]
-0.19488664 -0.40898255 0.16493988 -0.53842825 -0.3679901 -0.12614344 -0.34301955 -0.23497169
-0.18142484 -0.3458951 -0.041966155 -0.46392366 -0.20489709 -0.39562812 -0.31676245 -0.28192374
-0.44614556 -0.35831043 0.028713271 -0.6898715 -0.45736244 0.13677551 -0.049638253 -0.55241406
-0.24030693 -0.25604612 -0.28124064 -0.029206255 -0.31745663 0.0306735 -0.48802325 -0.14801918
-0.34711015 -0.31722966 -0.18281035 0.19222957 -0.42197162 -0.31803694 0.027690468 -0.06819644
-0.022553084 -0.19293097 -0.10116001 0.03675885 -0.15741579 -0.4383009 -0.22819741 -0.25171176
-0.22032693 0.13589887 -0.07124306 -0.5385297 -0.25639075 -0.40535858 -0.1808266 0.044688318
-0.20286445 -0.082444586 -0.57626295 -0.12801328 -0.19606656 -0.24000968 -0.37048623 -0.34878144
-0.4009704 -0.7809414 0.39729324 -0.56495655 -0.21904787 -0.2167 -0.20435415 -0.49154127
0.09033634 0.092029385 -0.4512236 -0.17445244 -0.58209974 -0.29913136 -0.2524478 -0.063926905
-0.43212903 -0.37077698 -0.25808805 -0.52435523 -0.16953252 -0.2762311 -0.43156296 -0.37256503
-0.058960766 -0.16769925 -0.3769268 0.20674868 0.01919296 0.1818231 -0.16629317 -0.109402984
-0.36848843 -0.2165166 -0.06880984 -0.57874936 -0.51371557 -0.411525 -0.5079931 -0.11668602
-0.4788379 0.01083065 -0.20284006 -0.38729107 -0.32349437 -0.57573557 -0.2039467 -0.17775677
-0.1852187 -0.035388153 -0.78081405 -0.5259988 -0.54621035 -0.19408178 0.047474388 -0.01157649
-0.7184811 -0.49861157 -0.44729015 -0.17894362 -0.39300215 -0.095279016 -0.1035503 0.055125013
0.051804528 -0.18937865 0.21890232 -0.013232461 -0.30879897 0.006122536 0.021126926 -0.14772773
-0.22238542 -0.3267307 0.027397532 -0.22521572 0.27910852 0.13580856 0.12683716 0.25230876
0.22290772 0.096502565 0.07191068 0.2900789 -0.3290791 0.17662524 0.39269853 -0.13614365
-0.022794368 0.29884616 0.0073259072 0.42150366 0.18885806 0.07259576 0.48838726 -0.18791695
0.042644773 0.10709385 0.2636995 0.07239639 0.23578078 0.16313034 0.3492477 0.14843418
0.22870913 0.4598881 0.017313784 0.19520907 0.010532364 -0.37710208 -0.3740925 0.10832032
0.034560606 0.5918394 -0.23570512 -0.007473441 -0.1830217 -0.12984553 0.43958193 0.21194398
0.11278518 -0.10798813 -0.11064496 0.21842779 -0.017963577 -0.08072909 0.23198117 -0.4476426
-0.058846712 -0.3709496 0.51471275 -0.06589298 -0.00096368504 -0.10900205 0.7782191 -0.16425616
0.50160766 0.12772629 0.3194571 0.26515463 -0.4922171 0.010596186 -0.13985729 0.2641526
0.21094611 0.57705605 0.012499878 -0.27216628 -0.4269746 0.014823332 -0.070842154 0.7180608
0.11533729 0.13390851 0.1912245 0.19990587 0.22557752 0.12551388 0.0075713624 0.16533275
-0.38882372 0.15977064 -0.068393424 0.51011354 -0.003698217 0.2454985 -0.06710162 -0.052294698
0.33321005 0.09646793 0.04996691 0.4861372 0.5202272 0.097264774 0.68587327 -0.17250563
0.050020095 0.10244485 -0.19748423 0.2485774 -0.01219673 0.3492808 0.32246503 0.10387519
-0.34762675 -0.06925874 -0.070245095 -0.25938132 0.00062677194 0.13113022 0.06416731 0.33468083
00000000: 5d90 47be 2966 d1be 00e6 283e 6fd6 09bf
00000010: 3369 bcbe bf2b 01be 42a0 afbe 6b9c 70be
00000020: 6fc7 39be 2a19 b1be b4e4 2bbd 6787 edbe
00000030: 8bd0 51be c58f cabe b02e a2be 4f58 90be
00000040: 316d e4be 7774 b7be 1838 eb3c 6b9b 30bf
00000050: 692b eabe e10e 0c3e 7b51 4bbd 026b 0dbf
00000060: 0513 76be 7a18 83be c6fe 8fbe f541 efbc
00000070: ad89 a2be fe46 fb3c 2fde f9be 5792 17be
00000080: 6cb8 b1be ed6b a2be a332 3bbe d4d7 443e
00000090: aa0c d8be bdd5 a2be 1fd7 e23c 93aa 8bbd
000000a0: 3fc1 b8bc b28f 45be fb2c cfbd 7390 163d
000000b0: 9b31 21be fa68 e0be 95ac 69be 5de0 80be
000000c0: 629d 61be 1329 0b3e e2e7 91bd 15dd 09bf
000000d0: a645 83be 298b cfbe 9c2a 39be 190b 373d
000000e0: b3bb 4fbe b5d8 a8bd f885 13bf ea15 03be
000000f0: acc5 48be 19c5 75be 5fb0 bdbe 7b93 b2be
00000100: fe4b cdbe c7eb 47bf 056a cb3e fea0 10bf
00000110: 164e 60be 9be6 5dbe 3742 51be 4cab fbbe
00000120: 4202 b93d e779 bc3d c806 e7be a9a3 32be
00000130: 7d04 15bf bf27 99be d740 81be 1cec 82bd
00000140: 0440 ddbe 7bd6 bdbe 1e24 84be 253c 06bf
00000150: ef99 2dbe 2a6e 8dbe d2f5 dcbe d8c0 bebe
00000160: d880 71bd 5ab9 2bbe 8dfc c0be edb5 533e
00000170: 8e3a 9d3c d62f 3a3e c248 2abe ac0e e0bd
00000180: 84aa bcbe 87b6 5dbe 2cec 8cbd eb28 14bf
00000190: dd82 03bf 68b3 d2be d60b 02bf 14f9 eebd
000001a0: 3e2a f5be 0a73 313c 4eb5 4fbe 044b c6be
000001b0: 0ea1 a5be 6863 13bf 67d7 50be df05 36be
000001c0: f9a9 3dbe 2bf3 10bd 6ee3 47bf dba7 06bf
000001d0: 71d4 0bbf 60bd 46be 8174 423d 51ab 3dbc
000001e0: 61ee 37bf 044a ffbe 3703 e5be ff3c 37be
000001f0: 9437 c9be a521 c3bd 2e12 d4bd c4ca 613d
00000200: fc30 543d 7aec 41be ee27 603e f7cc 58bc
00000210: e61a 9ebe 8e9f c83b 6012 ad3c f045 17be
00000220: 01b9 63be 3f49 a7be ca70 e03c f39e 66be
00000230: 50e7 8e3e 6611 0b3e 9ae1 013e 9d2e 813e
00000240: ec41 643e 23a3 c53d e845 933d 3985 943e
00000250: 0e7d a8be 3fdd 343e c80f c93e 3e69 0bbe
00000260: 41bb babc 5d02 993e 2a0e f03b 54cf d73e
00000270: 0264 413e 16ad 943d e50d fa3e 4d6d 40be
00000280: 49ac 2e3d 0554 db3d 9f03 873e 8f44 943d
00000290: 8470 713e a40b 273e 98d0 b23e 21ff 173e
000002a0: ba32 6a3e 7476 eb3e a3d5 8d3c e3e4 473e
000002b0: f08f 2c3c 8613 c1be 0d89 bfbe 0bd7 dd3d
000002c0: 6c8f 0d3d c982 173f af5c 71be c4e3 f4bb
000002d0: 0a6a 3bbe 3af6 04be e210 e13e d807 593e
000002e0: ebfb e63d e128 ddbd d399 e2bd 89ab 5f3e
000002f0: 5a28 93bc 4b55 a5bd 798c 6d3e 6931 e5be
00000300: 4009 71bd 1bed bdbe 37c4 033f e6f2 86bd
00000310: cf9f 7cba 773c dfbd 5e39 473f c432 28be
00000320: 5c69 003f aeca 023e e28f a33e 59c2 873e
00000330: e103 fcbe a09b 2d3c c036 0fbe 023f 873e
00000340: 4202 583e f2b9 133f 4acc 4c3c 6159 8bbe
00000350: 6a9c dabe 90dd 723c b115 91bd d5d2 373f
00000360: f535 ec3d 501f 093e 5bd0 433e 20b4 4c3e
00000370: cbfd 663e b686 003e 3119 f83b fd4c 293e
00000380: e713 c7be ea9a 233e da11 8cbd cd96 023f
00000390: c95d 72bb f563 7b3e 936c 89bd f732 56bd
000003a0: 829a aa3e fa90 c53d 1aaa 4c3d fae6 f83e
000003b0: 9c2d 053f c132 c73d 6495 2f3f 51a5 30be
000003c0: dfe1 4c3d 9bce d13d 4e39 4abe 138b 7e3e
000003d0: cbd4 47bc efd4 b23e 231a a53e 84bc d43d
000003e0: 22fc b1be 87d7 8dbd a9dc 8fbd a1cd 84be
000003f0: f44d 243a 0047 063e 276a 833d 495b ab3e

lstm.bias_hh_l1 f4 [512]
-0.064133644 -0.43528417 0.085594475 -0.54565066 -0.23952617 -0.114222266 -0.413015 -0.2653696
-0.044262875 -0.43050605 -0.14964525 -0.49950218 -0.22635108 -0.29395345 -0.31014445 -0.38101208
-0.40447024 -0.29821485 0.1554726 -0.68637675 -0.4747522 0.18493113 -0.06823847 -0.525838
-0.2806194 -0.2445484 -0.38164872 -0.06463856 -0.45232397 0.04146075 -0.43092585 -0.27054432
-0.31049967 -0.21414734 -0.14188428 0.10853576 -0.37895313 -0.31618795 0.028245378 -0.11035754
-0.10535553 -0.16632183 -0.105727255 -0.0027896015 -0.025399022 -0.4357665 -0.36086208 -0.2766559
-0.1951282 0.06721982 -0.0040814094 -0.4989346 -0.3384258 -0.38095203 -0.17135444 -0.015044105
-0.2697288 -0.07264103 -0.44803056 -0.07573358 -0.21229544 -0.14749245 -0.30145544 -0.41405663
-0.29318208 -0.7710754 0.3149649 -0.55589855 -0.12756291 -0.29123238 -0.15688281 -0.41386643
0.08893667 0.12353301 -0.44597062 -0.16520569 -0.5812576 -0.29065332 -0.18539725 -0.059798285
-0.41144302 -0.3639012 -0.1695485 -0.59106237 -0.26921728 -0.3423761 -0.44451714 -0.513026
-0.14444494 0.0024431262 -0.52131873 0.27159053 -0.00027551013 0.11083656 -0.20895937 -0.108218685
-0.36797774 -0.3585433 -0.06888757 -0.70437986 -0.48371723 -0.44784552 -0.53773737 -0.060477734
-0.5206811 0.017086811 -0.36246815 -0.522595 -0.27999255 -0.6340966 -0.10138766 -0.16094767
-0.21048729 -0.0885362 -0.6333879 -0.4347821 -0.6108417 -0.29099664 0.08174962 0.031546973
-0.7083897 -0.60442305 -0.4096776 -0.17363079 -0.34705025 -0.17084907 -0.16578232 0.043541964
0.03764422 -0.2058985 0.2895326 0.0190368 -0.21323086 0.045309022 -0.07911885 -0.15516582
-0.25806347 -0.3379723 -0.1005824 -0.17219904 0.118564285 0.17684713 0.028002549 0.123400085
0.31007943 0.15135235 -0.019496873 0.1932722 -0.26476753 0.22107588 0.46537375 -0.15384088
-0.077369474 0.29931754 -0.06716025 0.31693095 0.15883447 0.17321302 0.59368485 -0.31381547
0.033104256 0.020695116 0.17116871 0.09752111 0.21898672 0.19168161 0.3833653 0.17863825
0.22045648 0.5023112 0.024457363 0.29523852 0.05549474 -0.31956658 -0.3580777 0.15355265
-0.08914487 0.58075887 -0.27640814 -0.054655347 -0.17112331 -0.18362428 0.42428672 0.056678407
0.036473475 -0.1740797 -0.14717853 0.17482421 -0.045168035 -0.051535923 0.2375499 -0.32968128
0.013707003 -0.44832444 0.48830765 0.01140602 -0.04965044 -0.1878849 0.7140708 -0.11267936
0.35864004 0.29470304 0.25674993 0.3026867 -0.4050068 0.08542419 -0.18087387 0.2826401
0.2811136 0.6206512 0.090775155 -0.30041784 -0.37192512 0.17430283 0.022080243 0.7104997
0.17427553 0.1501649 0.17831177 0.20144384 0.10565997 0.09426966 0.028125111 0.23759343
-0.4313519 0.13823389 -0.16855167 0.39846775 0.084703185 0.17613384 -0.024950195 -0.036311924
0.29253423 0.021607267 0.05984829 0.38683975 0.6303496 0.26671183 0.7408219 -0.17216901
-0.01876983 0.04323144 -0.25187704 0.1671954 -0.014983054 0.30248427 0.4002498 0.009637799
-0.4060187 -0.042368017 0.07059208 -0.16928649 0.052173283 0.19182377 0.09069962 0.32654327
00000000: 8058 83bd 91dd debe 284c af3d c3af 0bbf
00000010: 5946 75be 5ded e9bd b476 d3be 86de 87be
00000020: fd4c 35bd 4a6b dcbe 9b3c 19be c0be ffbe
00000030: 94c8 67be 1181 96be 41cb 9ebe 0414 c3be
00000040: b916 cfbe 9eaf 98be 3634 1f3e 63b6 2fbf
00000050: b812 f3be 965e 3d3e 9cc0 8bbd 529d 06bf
00000060: 59ad 8fbe e56a 7abe 7667 c3be 3961 84bd
00000070: 0297 e7be bfd2 293d 50a2 dcbe c984 8abe
00000080: d0f9 9ebe 7149 5bbe 1d4a 11be ff47 de3d
00000090: 2506 c2be 63e3 a1be da62 e73c 2203 e2bd
000000a0: a4c4 d7bd 4550 2abe 8887 d8bd bfd1 36bb
000000b0: 9c11 d0bc c91c dfbe eac2 b8be d8a5 8dbe
000000c0: b0cf 47be 8caa 893d 58bd 85bb 5b74 ffbe
000000d0: 2546 adbe 250c c3be 8a77 2fbe 8d7b 76bc
000000e0: e519 8abe d2c4 94bd 4364 e5be 351a 9bbd
000000f0: fa63 59be 4308 17be 5e58 9abe 3bff d3be
00000100: f61b 96be 3365 45bf 1443 a13e 5e4f 0ebf
00000110: da9f 02be 691c 95be e3a5 20be 4de6 d3be
00000120: 6e24 b63d e0fe fc3d 4356 e4be ae2b 29be
00000130: 4ccd 14bf 83d0 94be c7d8 3dbe 0cef 74bd
00000140: a9a8 d2be 4251 babe 1f9e 2dbe dd4f 17bf
00000150: d9d6 89be ec4b afbe c097 e3be ac55 03bf
00000160: 60e9 13be db1c 203b 2575 05bf ea0d 8b3e
00000170: 5872 90b9 47fe e23d 72f9 55be c2a1 ddbd
00000180: 9467 bcbe fd92 b7be ed14 8dbd 3d52 34bf
00000190: c9a9 f7be 024c e5be 28a9 09bf 80b7 77bd
000001a0: 5b4b 05bf a4f9 8b3c 6d95 b9be c9c8 05bf
000001b0: 2f5b 8fbe 2854 22bf 55a4 cfbd 77cf 24be
000001c0: fb89 57be 7852 b5bd b625 22bf c29b debe
000001d0: 1f60 1cbf 83fd 94be 586c a73d 6637 013d
000001e0: 0759 35bf 78bb 1abf 43c1 d1be 45cc 31be
000001f0: 92b0 b1be 0ff3 2ebe d7c2 29be 0f59 323d
00000200: d330 1a3d 0ed7 52be 9e3d 943e 10f3 9b3c
00000210: 3159 5abe f495 393d 1009 a2bd cae3 1ebe
00000220: e520 84be b50a adbe 25fe cdbd f254 30be
00000230: d5d1 f23d 6a17 353e 9a65 e53c 2fb9 fc3d
00000240: bbc2 9e3e 1cfc 1a3e e8b7 9fbc 26e9 453e
00000250: 9c8f 87be b761 623e 7845 ee3e 7788 1dbe
00000260: e373 9ebd 2640 993e 508b 89bd c644 a23e
00000270: 81a5 223e c15e 313e bbfb 173f 6cac a0be
00000280: 5498 073d ce88 a93c da46 2f3e 26b9 c73d
00000290: 0e3e 603e 2f48 443e 7548 c43e f2ec 363e
000002a0: 58bf 613e 7897 003f cf5a c83c 8129 973e
000002b0: 744e 633d 3b9e a3be f655 b7be e83c 1d3e
000002c0: 9691 b6bd 9dac 143f 5e85 8dbe 49de 5fbd
000002d0: f33a 2fbe 0108 3cbe 1c3c d93e 9e27 683d
000002e0: 3665 153d f341 32be f8b5 16be 1e05 333e
000002f0: 1e02 39bd 5517 53bd 4840 733e fccb a8be
00000300: 5693 603c c88a e5be 7603 fa3e 51e0 3a3c
00000310: 435e 4bbd e664 40be 58cd 363f 70c4 e6bd
00000320: ab9f b73e 51e3 963e ba74 833e c0f9 9a3e
00000330: 0d5d cfbe e1f2 ae3d 0037 39be 34b6 903e
00000340: 1fee 8f3e ffe2 1e3f 53e8 b93d 5ed0 99be
00000350: f86c bebe 717c 323e a0e1 b43c 4fe3 353f
00000360: 4975 323e d4c4 193e 5c97 363e 4b47 4e3e
00000370: 4164 d83d 7410 c13d a266 e63c b14b 733e
00000380: 28da dcbe 2f8d 0d3e cf98 2cbe f703 cc3e
00000390: dd78 ad3d 6e5c 343e 5a64 ccbc d0bb 14bd
000003a0: 0cc7 953e b901 b13c 7b23 753d dc0f c63e
000003b0: 975e 213f 748e 883e 81a6 3d3f 134d 30be
000003c0: 30c3 99bc 7313 313d 07f6 80be 4535 2b3e
000003d0: 7c7b 75bc 38df 9a3e 8bed cc3e dce7 1d3c
000003e0: afe1 cfbe 168a 2dbd 9592 903d 7059 2dbe
000003f0: a7b3 553d 736d 443e b9c0 b93d ae30 a73e
